VideoAnomaliTespit/trained_3dcnn_model.pth (torch, 5728 bytes, 2 tensors)

fc.weight f4 [2, 512]
0	0xbf0a5250	-0.5403185
1	0xbf037ceb	-0.51362485
2	0xbca1de55	-0.019759336
3	0x3f03345e	0.5125178
4	0xbed076cb	-0.40715632
5	0xbec993c6	-0.39370555
6	0xbe81ae62	-0.25328356
7	0xbf198c6e	-0.59979904
8	0x3f1a9139	0.6037784
9	0x3f45aca9	0.77216583
10	0x3f1da5f8	0.61581373
11	0xbf03c8e3	-0.51478404
12	0x3f00e18e	0.5034417
13	0x3ed2866d	0.41118184
14	0xbd7af8a5	-0.061272282
15	0x3f9032c9	1.1265498
16	0xbe92c39b	-0.2866486
17	0xbe5a2408	-0.21302807
18	0xbf07e514	-0.5308392
19	0x3f125058	0.57153845
20	0x3f1162c1	0.5679131
21	0xbe8aedf2	-0.27134663
22	0xbf2faeef	-0.686263
23	0xbf24b221	-0.64334303
24	0x3ef57493	0.47940502
25	0xbf1e8dc2	-0.61935055
26	0xbf33633d	-0.700733
27	0x3f5acfbf	0.85473245
28	0x3f332012	0.6997081
29	0x3f1198a3	0.5687353
30	0xbd828b9a	-0.06374283
31	0x3f556928	0.8336358
32	0xbeb4d120	-0.353158
33	0xbf32bc15	-0.6981824
34	0xbf4ab0c0	-0.7917595
35	0xbf359b5e	-0.70940197
36	0x3f537984	0.82607293
37	0x3eef89b7	0.46784756
38	0x3f1c1da2	0.60982716
39	0x3eb3d564	0.35123742
40	0xbf75cab6	-0.9601244
41	0x3f02e20f	0.5112619
42	0xbd865f07	-0.06561094
43	0xbf03f78f	-0.5154962
44	0xbec04c0e	-0.37558025
45	0x3f58ae07	0.84640545
46	0xbe4266c8	-0.1898452
47	0xbd77c403	-0.060489666
48	0xbf4b6d5a	-0.7946373
49	0x3e15edba	0.14641467
50	0xbe75c3db	-0.24000494
51	0x3f282f8a	0.6569754
52	0x3e24edbb	0.16106312
53	0x3f31742f	0.6931791
54	0x3c9e6327	0.019334389
55	0x3f34ede8	0.70675516
56	0xbeb9ff13	-0.3632742
57	0xbf1148e1	-0.5675183
58	0xbf7eaa87	-0.99478954
59	0x3dc32a59	0.095295615
60	0xbf34fe0c	-0.70700145
61	0x3f4e03ac	0.8047435
62	0xbf325d7c	-0.69673896
63	0xbe3d5319	-0.1848873
64	0xbf2b834a	-0.66997206
65	0xbf5e5a89	-0.86856896
66	0x3e709453	0.23494081
67	0x3f394fd0	0.7238741
68	0x3f06edd8	0.5270667
69	0x3f47a611	0.7798777
70	0xbf5aeca6	-0.85517347
71	0x3f4e62e9	0.80619675
72	0x3f6ef082	0.93335736
73	0x3f3ec10d	0.7451332
74	0xbefe620b	-0.49684176
75	0x3f5aeadf	0.85514635
76	0xbf2d931b	-0.6780259
77	0x3f4b4c52	0.7941333
78	0xbf900789	-1.12523
79	0xbe5795e4	-0.21053272
80	0x3f15c5b1	0.5850478
81	0x3f36af4d	0.7136124
82	0xbf237b54	-0.6386006
83	0xbf394342	-0.7236825
84	0x3f00838a	0.5020071
85	0xbf231d94	-0.6371701
86	0x3e42b824	0.19015557
87	0x3f534045	0.8251994
88	0x3f21e07e	0.6323317
89	0xbf1cb0c2	-0.6120721
90	0x3f260e7b	0.64865845
91	0xbf3c6eb7	-0.7360644
92	0xbe3db140	-0.18524647
93	0xbf29c80c	-0.6632087
94	0xbf3f4cc3	-0.74726504
95	0xbeca8019	-0.39550856
96	0x3f55366e	0.8328618
97	0xbf2c857c	-0.6739118
98	0xbeba6732	-0.36406857
99	0x3f764f13	0.9621441
100	0xbe8d2f99	-0.27575377
101	0xbefd074c	-0.4941963
102	0x3ee4f0da	0.44715005
103	0xbb784f94	-0.003788923
104	0xbf07431a	-0.52836764
105	0x3df9e32a	0.12201531
106	0xbf17fe67	-0.5937256
107	0xbf0cf9ff	-0.55068964
108	0xbeb91269	-0.36146858
109	0x3f2d0768	0.67589426
110	0xbf389aca	-0.7211119
111	0xbf1fd9a7	-0.62441486
112	0xbf74ee3c	-0.95676017
113	0x3f406244	0.7514994
114	0x3ed16e92	0.4090467
115	0x3f38e37f	0.7222213
116	0x3e6d8ec2	0.23198989
117	0xbf2254ce	-0.6341065
118	0x3f259469	0.6467958
119	0xbf0837c0	-0.5321007
120	0xbf32bb0a	-0.6981665
121	0x3f1d067c	0.6133802
122	0x3f1e5fd6	0.61864984
123	0x3f663a6f	0.8993291
124	0x3f422c3e	0.7584876
125	0x3f02ba64	0.5106566
126	0xbf389253	-0.72098273
127	0x3f179948	0.59218264
128	0xbf310287	-0.6914448
129	0xbf6a4311	-0.91508585
130	0x3f15bd31	0.5849181
131	0x3f1e19e9	0.61758286
132	0xbf1b39ab	-0.6063487
133	0xbf20455a	-0.6260582
134	0x3ebcbb12	0.36861473
135	0x3ee63488	0.44961953
136	0x3f33c203	0.70217913
137	0x3f5383db	0.8262307
138	0xbef5c58d	-0.48002282
139	0xbf377a2c	-0.71670794
140	0xbf46dbc8	-0.7767911
141	0xbf0facaf	-0.5612287
142	0xbefccea4	-0.49376404
143	0xbf40fad6	-0.75382745
144	0xbf4e6590	-0.8062372
145	0x3f39bc8e	0.72553337
146	0x3f1344ba	0.57526743
147	0xbee4b5b0	-0.44669867
148	0x3f31b750	0.6942034
149	0xbee1ee1a	-0.4412697
150	0x3f2dd168	0.67897654
151	0xbe55580e	-0.20834371
152	0xbf150044	-0.5820353
153	0xbf42f29d	-0.7615145
154	0x3deac6db	0.1146371
155	0x3e2163e4	0.15760761
156	0xbf468cee	-0.7755879
157	0xbf23e0d8	-0.6401496
158	0x3d65b700	0.056082726
159	0xbf3f5371	-0.74736696
160	0xbf66c0f4	-0.90138173
161	0xbec5f8c7	-0.38666365
162	0xbf0dd144	-0.5539744
163	0xbf37e2ba	-0.7183033
164	0xbd96d954	-0.07365671
165	0xbf38f616	-0.722505
166	0xbf52d466	-0.82355344
167	0x3f08a440	0.53375626
168	0xbf203309	-0.62577873
169	0x3f2b37e1	0.6688214
170	0x3f0c5ee4	0.5483229
171	0x3efb8d66	0.49131316
172	0x3f258d44	0.6466868
173	0xbf4a1c78	-0.7894969
174	0xbf016af8	-0.50553846
175	0xbf72ed3f	-0.9489326
176	0xbf4b21b1	-0.79348284
177	0xbeb1040f	-0.3457341
178	0x3f3366f3	0.70078963
179	0xbf391e36	-0.72311723
180	0x3f5c3c2a	0.86029303
181	0x3f6655e9	0.8997484
182	0xbf3ce094	-0.7378018
183	0x3f3ef82c	0.7459743
184	0xbb866fd1	-0.004102685
185	0x3f1d754a	0.61507094
186	0x3f700145	0.9375194
187	0x3f56d004	0.83911157
188	0x3f315d92	0.692834
189	0x3f4400c5	0.76563674
190	0x3f29d4c4	0.6634028
191	0x3f293c21	0.66107374
192	0x3f6d7758	0.9276023
193	0x3f1465e0	0.5796795
194	0xbf42aee9	-0.7604814
195	0x3f0f322b	0.55935925
196	0xbe64bd5d	-0.22337861
197	0xbf4f659b	-0.8101441
198	0x3ee0cc7e	0.43906015
199	0x3efe21a1	0.49635032
200	0xbd07f8af	-0.033196148
201	0xbf3c401a	-0.7353531
202	0xbefe1408	-0.49624658
203	0xbf242de2	-0.6413251
204	0x3e8ebe8f	0.2787976
205	0xbef5c524	-0.4800197
206	0xbf6506bf	-0.8946342
207	0x3e49eb45	0.19718654
208	0x3eff6db5	0.49888387
209	0x3efa5e45	0.48900047
210	0xbf4af2b1	-0.7927657
211	0x3f3d7468	0.74005747
212	0x3dc79ccf	0.09746706
213	0xbf2f2645	-0.6841777
214	0x3f2ce29a	0.67533267
215	0xbe62a879	-0.2213458
216	0x3eb6e757	0.35723373
217	0xbe058051	-0.1303723
218	0x3f9f36aa	1.2438557
219	0xbf2051ba	-0.62624705
220	0x3eb0d412	0.34536797
221	0x3f5fbaca	0.8739439
222	0xbeea35dd	-0.4574422
223	0x3f60dc44	0.878361
224	0xbf16c99d	-0.5890139
225	0xbf3fab21	-0.74870497
226	0xbf0a23ec	-0.5396106
227	0xbf0fc11e	-0.5615405
228	0xbf01276b	-0.5045077
229	0xbe086f0b	-0.1332361
230	0xbefd326a	-0.49452525
231	0xbf204b5b	-0.62614983
232	0xbf33f776	-0.7029947
233	0x3ed661d6	0.41871518
234	0xbf1b01ef	-0.60549825
235	0xbd109f22	-0.03530801
236	0x3eb6d877	0.35712025
237	0xbeab2a80	-0.33430862
238	0xbf0ee38f	-0.55815977
239	0x3eda9b5c	0.42696655
240	0x3e7b617e	0.24548909
241	0xbedeae99	-0.43492582
242	0x3f7eba01	0.9950257
243	0x3f652bf9	0.8952022
244	0xbf48cb87	-0.7843556
245	0x3e2ef4f2	0.17085627
246	0xbf0086e5	-0.5020583
247	0xbe37f10b	-0.17963044
248	0x3e8eaa38	0.27864242
249	0xbf00a95e	-0.50258434
250	0xbf5f6752	-0.8726703
251	0x3f72759a	0.94710696
252	0x3f158efb	0.58421296
253	0x3f48f699	0.7850128
254	0xbd752156	-0.059846245
255	0x3f19ee16	0.60128915

fc.bias f4 [2]
0	0x3ff5fc1f	1.9217566
1	0xbff8367c	-1.9391627
